…
Conv2d(3, 96, kernel_size=(11, 11), stride=(4, 4))
BatchNorm aggiornato con 48 feature
Conv2d(96, 256, kernel_size=(5, 5), stride=(1, 1), padding=(2, 2))
BatchNorm aggiornato con 128 feature
Conv2d(256, 384, kernel_size=(3, 3), stride=(1, 1), padding=(1, 1))
BatchNorm aggiornato con 192 feature
Conv2d(384, 384, kernel_size=(3, 3), stride=(1, 1), padding=(1, 1))
BatchNorm aggiornato con 192 feature
Conv2d(384, 256, kernel_size=(3, 3), stride=(1, 1), padding=(1, 1))
BatchNorm aggiornato con 128 feature
Reduction operations:
[{'op': 'scale_feats', 'val': 0.5}]
Reduction ratio: 1.0
Sequential(
  (0): Sequential(
    (0): Conv2d(3, 96, kernel_size=(11, 11), stride=(4, 4))
    (1): BatchNorm2d(96, eps=1e-05, momentum=0.1, affine=True, track_running_stats=True)
    (2): ReLU()
    (3): MaxPool2d(kernel_size=3, stride=2, padding=0, dilation=1, ceil_mode=False)
  )
  (1): Sequential(
    (0): Conv2d(96, 256, kernel_size=(5, 5), stride=(1, 1), padding=(2, 2))
    (1): BatchNorm2d(256, eps=1e-05, momentum=0.1, affine=True, track_running_stats=True)
    (2): ReLU()
    (3): MaxPool2d(kernel_size=3, stride=2, padding=0, dilation=1, ceil_mode=False)
  )
  (2): Sequential(
    (0): Conv2d(256, 384, kernel_size=(3, 3), stride=(1, 1), padding=(1, 1))
    (1): BatchNorm2d(384, eps=1e-05, momentum=0.1, affine=True, track_running_stats=True)
    (2): ReLU()
  )
  (3): Sequential(
    (0): Conv2d(384, 384, kernel_size=(3, 3), stride=(1, 1), padding=(1, 1))
    (1): BatchNorm2d(384, eps=1e-05, momentum=0.1, affine=True, track_running_stats=True)
    (2): ReLU()
  )
  (4): Sequential(
    (0): Conv2d(384, 256, kernel_size=(3, 3), stride=(1, 1), padding=(1, 1))
    (1): BatchNorm2d(256, eps=1e-05, momentum=0.1, affine=True, track_running_stats=True)
    (2): ReLU()
    (3): MaxPool2d(kernel_size=3, stride=2, padding=0, dilation=1, ceil_mode=False)
  )
  (5): Sequential(
    (0): AdaptiveAvgPool2d(output_size=(6, 6))
    (1): Flatten(start_dim=1, end_dim=-1)
    (2): Dropout(p=0.5, inplace=False)
  )
  (6): Sequential(
    (0): Linear(in_features=9216, out_features=4096, bias=True)
    (1): ReLU()
    (2): Dropout(p=0.5, inplace=False)
  )
  (7): Sequential(
    (0): Linear(in_features=4096, out_features=4096, bias=True)
    (1): ReLU()
  )
  (8): Sequential(
    (0): Linear(in_features=4096, out_features=10, bias=True)
  )
)
------------------------------------------------------------------------------
Sequential(
  (0): Sequential(
    (0): Conv2d(3, 48, kernel_size=(11, 11), stride=(4, 4))
    (1): BatchNorm2d(48, eps=1e-05, momentum=0.1, affine=True, track_running_stats=True)
    (2): ReLU()
    (3): MaxPool2d(kernel_size=3, stride=2, padding=0, dilation=1, ceil_mode=False)
  )
  (1): Sequential(
    (0): Conv2d(48, 128, kernel_size=(5, 5), stride=(1, 1), padding=(2, 2))
    (1): BatchNorm2d(128, eps=1e-05, momentum=0.1, affine=True, track_running_stats=True)
    (2): ReLU()
    (3): MaxPool2d(kernel_size=3, stride=2, padding=0, dilation=1, ceil_mode=False)
  )
  (2): Sequential(
    (0): Conv2d(128, 192, kernel_size=(3, 3), stride=(1, 1), padding=(1, 1))
    (1): BatchNorm2d(192, eps=1e-05, momentum=0.1, affine=True, track_running_stats=True)
    (2): ReLU()
  )
  (3): Sequential(
    (0): Conv2d(192, 192, kernel_size=(3, 3), stride=(1, 1), padding=(1, 1))
    (1): BatchNorm2d(192, eps=1e-05, momentum=0.1, affine=True, track_running_stats=True)
    (2): ReLU()
  )
  (4): Sequential(
    (0): Conv2d(192, 128, kernel_size=(3, 3), stride=(1, 1), padding=(1, 1))
    (1): BatchNorm2d(128, eps=1e-05, momentum=0.1, affine=True, track_running_stats=True)
    (2): ReLU()
    (3): MaxPool2d(kernel_size=3, stride=2, padding=0, dilation=1, ceil_mode=False)
  )
  (5): Sequential(
    (0): AdaptiveAvgPool2d(output_size=(6, 6))
    (1): Flatten(start_dim=1, end_dim=-1)
    (2): Dropout(p=0.5, inplace=False)
  )
  (6): Sequential(
    (0): Linear(in_features=4608, out_features=2048, bias=True)
    (1): ReLU()
    (2): Dropout(p=0.5, inplace=False)
  )
  (7): Sequential(
    (0): Linear(in_features=2048, out_features=2048, bias=True)
    (1): ReLU()
  )
  (8): Sequential(
    (0): Linear(in_features=2048, out_features=10, bias=True)
  )
)
Epoch 1/100, Train Loss: 1.352656, Train Acc: 50.37%, Val Loss: 1.011011, Val Acc: 63.92%
Epoch 2/100, Train Loss: 0.933345, Train Acc: 66.52%, Val Loss: 0.931868, Val Acc: 67.27%
Epoch 3/100, Train Loss: 0.788081, Train Acc: 72.02%, Val Loss: 0.762189, Val Acc: 73.44%
Epoch 4/100, Train Loss: 0.706436, Train Acc: 75.09%, Val Loss: 0.750913, Val Acc: 73.55%
…
DEVO RIMUOVERE:  {'index': '1', 'type': 'Sequential', 'layers': [{'index': '1.0', 'type': 'Conv2d', 'args': {'in_channels': 48, 'out_channels': 128, 'kernel_size': (5, 5), 'stride': (1, 1), 'padding': (2, 2), 'dilation': (1, 1), 'groups': 1, 'padding_mode': 'zeros'}}, {'index': '1.1', 'type': 'BatchNorm2d', 'args': {'num_features': 128, 'eps': 1e-05, 'momentum': 0.1, 'affine': True, 'track_running_stats': True}}, {'index': '1.2', 'type': 'ReLU', 'args': {'inplace': False}}, {'index': '1.3', 'type': 'MaxPool2d', 'args': {'kernel_size': 3, 'stride': 2, 'padding': 0, 'dilation': 1, 'return_indices': False, 'ceil_mode': False}}]}
Reduction operations:
[{'op': 'scale_feats', 'val': 0.5}, {'op': 'reduce_depth', 'val': 1}]
Reduction ratio: 1.0
Sequential(
  (0): Sequential(
    (0): Conv2d(3, 48, kernel_size=(11, 11), stride=(4, 4))
    (1): BatchNorm2d(48, eps=1e-05, momentum=0.1, affine=True, track_running_stats=True)
    (2): ReLU()
    (3): MaxPool2d(kernel_size=3, stride=2, padding=0, dilation=1, ceil_mode=False)
  )
  (1): Sequential(
    (0): Conv2d(48, 128, kernel_size=(5, 5), stride=(1, 1), padding=(2, 2))
    (1): BatchNorm2d(128, eps=1e-05, momentum=0.1, affine=True, track_running_stats=True)
    (2): ReLU()
    (3): MaxPool2d(kernel_size=3, stride=2, padding=0, dilation=1, ceil_mode=False)
  )
  (2): Sequential(
    (0): Conv2d(128, 192, kernel_size=(3, 3), stride=(1, 1), padding=(1, 1))
    (1): BatchNorm2d(192, eps=1e-05, momentum=0.1, affine=True, track_running_stats=True)
    (2): ReLU()
  )
  (3): Sequential(
    (0): Conv2d(192, 192, kernel_size=(3, 3), stride=(1, 1), padding=(1, 1))
    (1): BatchNorm2d(192, eps=1e-05, momentum=0.1, affine=True, track_running_stats=True)
    (2): ReLU()
  )
  (4): Sequential(
    (0): Conv2d(192, 128, kernel_size=(3, 3), stride=(1, 1), padding=(1, 1))
    (1): BatchNorm2d(128, eps=1e-05, momentum=0.1, affine=True, track_running_stats=True)
    (2): ReLU()
    (3): MaxPool2d(kernel_size=3, stride=2, padding=0, dilation=1, ceil_mode=False)
  )
  (5): Sequential(
    (0): AdaptiveAvgPool2d(output_size=(6, 6))
    (1): Flatten(start_dim=1, end_dim=-1)
    (2): Dropout(p=0.5, inplace=False)
  )
  (6): Sequential(
    (0): Linear(in_features=4608, out_features=2048, bias=True)
    (1): ReLU()
    (2): Dropout(p=0.5, inplace=False)
  )
  (7): Sequential(
    (0): Linear(in_features=2048, out_features=2048, bias=True)
    (1): ReLU()
  )
  (8): Sequential(
    (0): Linear(in_features=2048, out_features=10, bias=True)
  )
)
------------------------------------------------------------------------------
Sequential(
  (0): Sequential(
    (0): Conv2d(3, 48, kernel_size=(11, 11), stride=(4, 4))
    (1): BatchNorm2d(48, eps=1e-05, momentum=0.1, affine=True, track_running_stats=True)
    (2): ReLU()
    (3): MaxPool2d(kernel_size=3, stride=2, padding=0, dilation=1, ceil_mode=False)
  )
  (1): Sequential(
    (0): Conv2d(48, 192, kernel_size=(3, 3), stride=(1, 1), padding=(1, 1))
    (1): BatchNorm2d(192, eps=1e-05, momentum=0.1, affine=True, track_running_stats=True)
    (2): ReLU()
  )
  (2): Sequential(
    (0): Conv2d(192, 192, kernel_size=(3, 3), stride=(1, 1), padding=(1, 1))
    (1): BatchNorm2d(192, eps=1e-05, momentum=0.1, affine=True, track_running_stats=True)
    (2): ReLU()
  )
  (3): Sequential(
    (0): Conv2d(192, 128, kernel_size=(3, 3), stride=(1, 1), padding=(1, 1))
    (1): BatchNorm2d(128, eps=1e-05, momentum=0.1, affine=True, track_running_stats=True)
    (2): ReLU()
    (3): MaxPool2d(kernel_size=3, stride=2, padding=0, dilation=1, ceil_mode=False)
  )
  (4): Sequential(
    (0): AdaptiveAvgPool2d(output_size=(6, 6))
    (1): Flatten(start_dim=1, end_dim=-1)
    (2): Dropout(p=0.5, inplace=False)
  )
  (5): Sequential(
    (0): Linear(in_features=4608, out_features=2048, bias=True)
    (1): ReLU()
    (2): Dropout(p=0.5, inplace=False)
  )
  (6): Sequential(
    (0): Linear(in_features=2048, out_features=2048, bias=True)
    (1): ReLU()
  )
  (7): Sequential(
    (0): Linear(in_features=2048, out_features=10, bias=True)
  )
)
Epoch 1/100, Train Loss: 1.390899, Train Acc: 49.08%, Val Loss: 1.062247, Val Acc: 61.55%
Epoch 2/100, Train Loss: 1.027501, Train Acc: 63.20%, Val Loss: 1.001026, Val Acc: 65.35%
Epoch 3/100, Train Loss: 0.898187, Train Acc: 67.96%, Val Loss: 0.776488, Val Acc: 73.01%
Epoch 4/100, Train Loss: 0.812213, Train Acc: 71.43%, Val Loss: 0.740797, Val Acc: 73.92%
…
Conv2d(3, 48, kernel_size=(11, 11), stride=(4, 4))
BatchNorm aggiornato con 24 feature
Conv2d(48, 192, kernel_size=(3, 3), stride=(1, 1), padding=(1, 1))
BatchNorm aggiornato con 96 feature
Conv2d(192, 192, kernel_size=(3, 3), stride=(1, 1), padding=(1, 1))
BatchNorm aggiornato con 96 feature
Conv2d(192, 128, kernel_size=(3, 3), stride=(1, 1), padding=(1, 1))
BatchNorm aggiornato con 64 feature
Reduction operations:
[{'op': 'scale_feats', 'val': 0.5},
 {'op': 'reduce_depth', 'val': 1},
 {'op': 'scale_feats', 'val': 0.5}]
Reduction ratio: 0.8888888888888888
Sequential(
  (0): Sequential(
    (0): Conv2d(3, 48, kernel_size=(11, 11), stride=(4, 4))
    (1): BatchNorm2d(48, eps=1e-05, momentum=0.1, affine=True, track_running_stats=True)
    (2): ReLU()
    (3): MaxPool2d(kernel_size=3, stride=2, padding=0, dilation=1, ceil_mode=False)
  )
  (1): Sequential(
    (0): Conv2d(48, 192, kernel_size=(3, 3), stride=(1, 1), padding=(1, 1))
    (1): BatchNorm2d(192, eps=1e-05, momentum=0.1, affine=True, track_running_stats=True)
    (2): ReLU()
  )
  (2): Sequential(
    (0): Conv2d(192, 192, kernel_size=(3, 3), stride=(1, 1), padding=(1, 1))
    (1): BatchNorm2d(192, eps=1e-05, momentum=0.1, affine=True, track_running_stats=True)
    (2): ReLU()
  )
  (3): Sequential(
    (0): Conv2d(192, 128, kernel_size=(3, 3), stride=(1, 1), padding=(1, 1))
    (1): BatchNorm2d(128, eps=1e-05, momentum=0.1, affine=True, track_running_stats=True)
    (2): ReLU()
    (3): MaxPool2d(kernel_size=3, stride=2, padding=0, dilation=1, ceil_mode=False)
  )
  (4): Sequential(
    (0): AdaptiveAvgPool2d(output_size=(6, 6))
    (1): Flatten(start_dim=1, end_dim=-1)
    (2): Dropout(p=0.5, inplace=False)
  )
  (5): Sequential(
    (0): Linear(in_features=4608, out_features=2048, bias=True)
    (1): ReLU()
    (2): Dropout(p=0.5, inplace=False)
  )
  (6): Sequential(
    (0): Linear(in_features=2048, out_features=2048, bias=True)
    (1): ReLU()
  )
  (7): Sequential(
    (0): Linear(in_features=2048, out_features=10, bias=True)
  )
)
------------------------------------------------------------------------------
Sequential(
  (0): Sequential(
    (0): Conv2d(3, 24, kernel_size=(11, 11), stride=(4, 4))
    (1): BatchNorm2d(24, eps=1e-05, momentum=0.1, affine=True, track_running_stats=True)
    (2): ReLU()
    (3): MaxPool2d(kernel_size=3, stride=2, padding=0, dilation=1, ceil_mode=False)
  )
  (1): Sequential(
    (0): Conv2d(24, 96, kernel_size=(3, 3), stride=(1, 1), padding=(1, 1))
    (1): BatchNorm2d(96, eps=1e-05, momentum=0.1, affine=True, track_running_stats=True)
    (2): ReLU()
  )
  (2): Sequential(
    (0): Conv2d(96, 96, kernel_size=(3, 3), stride=(1, 1), padding=(1, 1))
    (1): BatchNorm2d(96, eps=1e-05, momentum=0.1, affine=True, track_running_stats=True)
    (2): ReLU()
  )
  (3): Sequential(
    (0): Conv2d(96, 64, kernel_size=(3, 3), stride=(1, 1), padding=(1, 1))
    (1): BatchNorm2d(64, eps=1e-05, momentum=0.1, affine=True, track_running_stats=True)
    (2): ReLU()
    (3): MaxPool2d(kernel_size=3, stride=2, padding=0, dilation=1, ceil_mode=False)
  )
  (4): Sequential(
    (0): AdaptiveAvgPool2d(output_size=(6, 6))
    (1): Flatten(start_dim=1, end_dim=-1)
    (2): Dropout(p=0.5, inplace=False)
  )
  (5): Sequential(
    (0): Linear(in_features=2304, out_features=1024, bias=True)
    (1): ReLU()
    (2): Dropout(p=0.5, inplace=False)
  )
  (6): Sequential(
    (0): Linear(in_features=1024, out_features=1024, bias=True)
    (1): ReLU()
  )
  (7): Sequential(
    (0): Linear(in_features=1024, out_features=10, bias=True)
  )
)
Epoch 1/100, Train Loss: 1.503661, Train Acc: 44.52%, Val Loss: 1.167994, Val Acc: 57.48%
Epoch 2/100, Train Loss: 1.145361, Train Acc: 58.68%, Val Loss: 0.991831, Val Acc: 64.90%
Epoch 3/100, Train Loss: 1.018284, Train Acc: 63.70%, Val Loss: 0.903395, Val Acc: 67.75%
Epoch 4/100, Train Loss: 0.946353, Train Acc: 66.31%, Val Loss: 0.825450, Val Acc: 70.54%
…
Metrics computed = [{'name': 'accuracy', 'value': 0.8471}]
Valore m[value]:  0.8471
	Requirements satisfied! Reducing model ... 
Saving mid model... 
String Index to remove:  6
DEVO RIMUOVERE:  {'index': '6', 'type': 'Sequential', 'layers': [{'index': '6.0', 'type': 'Linear', 'args': {'in_features': 1024, 'out_features': 1024}}, {'index': '6.1', 'type': 'ReLU', 'args': {'inplace': False}}]}
Reduction operations:
[{'op': 'scale_feats', 'val': 0.5},
 {'op': 'reduce_depth', 'val': 1},
 {'op': 'scale_feats', 'val': 0.5},
 {'op': 'reduce_depth', 'val': 6}]
Reduction ratio: 0.8888888888888888
Sequential(
  (0): Sequential(
    (0): Conv2d(3, 24, kernel_size=(11, 11), stride=(4, 4))
    (1): BatchNorm2d(24, eps=1e-05, momentum=0.1, affine=True, track_running_stats=True)
    (2): ReLU()
    (3): MaxPool2d(kernel_size=3, stride=2, padding=0, dilation=1, ceil_mode=False)
  )
  (1): Sequential(
    (0): Conv2d(24, 96, kernel_size=(3, 3), stride=(1, 1), padding=(1, 1))
    (1): BatchNorm2d(96, eps=1e-05, momentum=0.1, affine=True, track_running_stats=True)
    (2): ReLU()
  )
  (2): Sequential(
    (0): Conv2d(96, 96, kernel_size=(3, 3), stride=(1, 1), padding=(1, 1))
    (1): BatchNorm2d(96, eps=1e-05, momentum=0.1, affine=True, track_running_stats=True)
    (2): ReLU()
  )
  (3): Sequential(
    (0): Conv2d(96, 64, kernel_size=(3, 3), stride=(1, 1), padding=(1, 1))
    (1): BatchNorm2d(64, eps=1e-05, momentum=0.1, affine=True, track_running_stats=True)
    (2): ReLU()
    (3): MaxPool2d(kernel_size=3, stride=2, padding=0, dilation=1, ceil_mode=False)
  )
  (4): Sequential(
    (0): AdaptiveAvgPool2d(output_size=(6, 6))
    (1): Flatten(start_dim=1, end_dim=-1)
    (2): Dropout(p=0.5, inplace=False)
  )
  (5): Sequential(
    (0): Linear(in_features=2304, out_features=1024, bias=True)
    (1): ReLU()
    (2): Dropout(p=0.5, inplace=False)
  )
  (6): Sequential(
    (0): Linear(in_features=1024, out_features=1024, bias=True)
    (1): ReLU()
  )
  (7): Sequential(
    (0): Linear(in_features=1024, out_features=10, bias=True)
  )
)
------------------------------------------------------------------------------
Sequential(
  (0): Sequential(
    (0): Conv2d(3, 24, kernel_size=(11, 11), stride=(4, 4))
    (1): BatchNorm2d(24, eps=1e-05, momentum=0.1, affine=True, track_running_stats=True)
    (2): ReLU()
    (3): MaxPool2d(kernel_size=3, stride=2, padding=0, dilation=1, ceil_mode=False)
  )
  (1): Sequential(
    (0): Conv2d(24, 96, kernel_size=(3, 3), stride=(1, 1), padding=(1, 1))
    (1): BatchNorm2d(96, eps=1e-05, momentum=0.1, affine=True, track_running_stats=True)
    (2): ReLU()
  )
  (2): Sequential(
    (0): Conv2d(96, 96, kernel_size=(3, 3), stride=(1, 1), padding=(1, 1))
    (1): BatchNorm2d(96, eps=1e-05, momentum=0.1, affine=True, track_running_stats=True)
    (2): ReLU()
  )
  (3): Sequential(
    (0): Conv2d(96, 64, kernel_size=(3, 3), stride=(1, 1), padding=(1, 1))
    (1): BatchNorm2d(64, eps=1e-05, momentum=0.1, affine=True, track_running_stats=True)
    (2): ReLU()
    (3): MaxPool2d(kernel_size=3, stride=2, padding=0, dilation=1, ceil_mode=False)
  )
  (4): Sequential(
    (0): AdaptiveAvgPool2d(output_size=(6, 6))
    (1): Flatten(start_dim=1, end_dim=-1)
    (2): Dropout(p=0.5, inplace=False)
  )
  (5): Sequential(
    (0): Linear(in_features=2304, out_features=1024, bias=True)
    (1): ReLU()
    (2): Dropout(p=0.5, inplace=False)
  )
  (6): Sequential(
    (0): Linear(in_features=1024, out_features=10, bias=True)
  )
)
Epoch 1/100, Train Loss: 1.552336, Train Acc: 43.09%, Val Loss: 1.208750, Val Acc: 55.90%
Epoch 2/100, Train Loss: 1.193486, Train Acc: 56.74%, Val Loss: 1.035323, Val Acc: 63.49%
Epoch 3/100, Train Loss: 1.053023, Train Acc: 62.45%, Val Loss: 0.912852, Val Acc: 68.03%
Epoch 4/100, Train Loss: 0.973294, Train Acc: 65.39%, Val Loss: 0.834091, Val Acc: 70.88%
…
BatchNorm aggiornato con 12 feature
Conv2d(24, 96, kernel_size=(3, 3), stride=(1, 1), padding=(1, 1))
BatchNorm aggiornato con 48 feature
Conv2d(96, 96, kernel_size=(3, 3), stride=(1, 1), padding=(1, 1))
BatchNorm aggiornato con 48 feature
Conv2d(96, 64, kernel_size=(3, 3), stride=(1, 1), padding=(1, 1))
BatchNorm aggiornato con 32 feature
Reduction operations:
[{'op': 'scale_feats', 'val': 0.5},
 {'op': 'reduce_depth', 'val': 1},
 {'op': 'scale_feats', 'val': 0.5},
 {'op': 'reduce_depth', 'val': 6},
 {'op': 'scale_feats', 'val': 0.5}]
Reduction ratio: 0.7777777777777778
Sequential(
  (0): Sequential(
    (0): Conv2d(3, 24, kernel_size=(11, 11), stride=(4, 4))
    (1): BatchNorm2d(24, eps=1e-05, momentum=0.1, affine=True, track_running_stats=True)
    (2): ReLU()
    (3): MaxPool2d(kernel_size=3, stride=2, padding=0, dilation=1, ceil_mode=False)
  )
  (1): Sequential(
    (0): Conv2d(24, 96, kernel_size=(3, 3), stride=(1, 1), padding=(1, 1))
    (1): BatchNorm2d(96, eps=1e-05, momentum=0.1, affine=True, track_running_stats=True)
    (2): ReLU()
  )
  (2): Sequential(
    (0): Conv2d(96, 96, kernel_size=(3, 3), stride=(1, 1), padding=(1, 1))
    (1): BatchNorm2d(96, eps=1e-05, momentum=0.1, affine=True, track_running_stats=True)
    (2): ReLU()
  )
  (3): Sequential(
    (0): Conv2d(96, 64, kernel_size=(3, 3), stride=(1, 1), padding=(1, 1))
    (1): BatchNorm2d(64, eps=1e-05, momentum=0.1, affine=True, track_running_stats=True)
    (2): ReLU()
    (3): MaxPool2d(kernel_size=3, stride=2, padding=0, dilation=1, ceil_mode=False)
  )
  (4): Sequential(
    (0): AdaptiveAvgPool2d(output_size=(6, 6))
    (1): Flatten(start_dim=1, end_dim=-1)
    (2): Dropout(p=0.5, inplace=False)
  )
  (5): Sequential(
    (0): Linear(in_features=2304, out_features=1024, bias=True)
    (1): ReLU()
    (2): Dropout(p=0.5, inplace=False)
  )
  (6): Sequential(
    (0): Linear(in_features=1024, out_features=10, bias=True)
  )
)
------------------------------------------------------------------------------
Sequential(
  (0): Sequential(
    (0): Conv2d(3, 12, kernel_size=(11, 11), stride=(4, 4))
    (1): BatchNorm2d(12, eps=1e-05, momentum=0.1, affine=True, track_running_stats=True)
    (2): ReLU()
    (3): MaxPool2d(kernel_size=3, stride=2, padding=0, dilation=1, ceil_mode=False)
  )
  (1): Sequential(
    (0): Conv2d(12, 48, kernel_size=(3, 3), stride=(1, 1), padding=(1, 1))
    (1): BatchNorm2d(48, eps=1e-05, momentum=0.1, affine=True, track_running_stats=True)
    (2): ReLU()
  )
  (2): Sequential(
    (0): Conv2d(48, 48, kernel_size=(3, 3), stride=(1, 1), padding=(1, 1))
    (1): BatchNorm2d(48, eps=1e-05, momentum=0.1, affine=True, track_running_stats=True)
    (2): ReLU()
  )
  (3): Sequential(
    (0): Conv2d(48, 32, kernel_size=(3, 3), stride=(1, 1), padding=(1, 1))
    (1): BatchNorm2d(32, eps=1e-05, momentum=0.1, affine=True, track_running_stats=True)
    (2): ReLU()
    (3): MaxPool2d(kernel_size=3, stride=2, padding=0, dilation=1, ceil_mode=False)
  )
  (4): Sequential(
    (0): AdaptiveAvgPool2d(output_size=(6, 6))
    (1): Flatten(start_dim=1, end_dim=-1)
    (2): Dropout(p=0.5, inplace=False)
  )
  (5): Sequential(
    (0): Linear(in_features=1152, out_features=512, bias=True)
    (1): ReLU()
    (2): Dropout(p=0.5, inplace=False)
  )
  (6): Sequential(
    (0): Linear(in_features=512, out_features=10, bias=True)
  )
)
Epoch 1/100, Train Loss: 1.715470, Train Acc: 36.51%, Val Loss: 1.360274, Val Acc: 51.44%
Epoch 2/100, Train Loss: 1.408302, Train Acc: 48.55%, Val Loss: 1.222086, Val Acc: 56.44%
Epoch 3/100, Train Loss: 1.279201, Train Acc: 53.67%, Val Loss: 1.133344, Val Acc: 59.68%
Epoch 4/100, Train Loss: 1.194495, Train Acc: 56.88%, Val Loss: 1.031463, Val Acc: 63.20%
…
DEVO RIMUOVERE:  {'index': '1', 'type': 'Sequential', 'layers': [{'index': '1.0', 'type': 'Conv2d', 'args': {'in_channels': 12, 'out_channels': 48, 'kernel_size': (3, 3), 'stride': (1, 1), 'padding': (1, 1), 'dilation': (1, 1), 'groups': 1, 'padding_mode': 'zeros'}}, {'index': '1.1', 'type': 'BatchNorm2d', 'args': {'num_features': 48, 'eps': 1e-05, 'momentum': 0.1, 'affine': True, 'track_running_stats': True}}, {'index': '1.2', 'type': 'ReLU', 'args': {'inplace': False}}]}
Reduction operations:
[{'op': 'scale_feats', 'val': 0.5},
 {'op': 'reduce_depth', 'val': 1},
 {'op': 'scale_feats', 'val': 0.5},
 {'op': 'reduce_depth', 'val': 6},
 {'op': 'scale_feats', 'val': 0.5},
 {'op': 'reduce_depth', 'val': 1}]
Reduction ratio: 0.7777777777777778
Sequential(
  (0): Sequential(
    (0): Conv2d(3, 12, kernel_size=(11, 11), stride=(4, 4))
    (1): BatchNorm2d(12, eps=1e-05, momentum=0.1, affine=True, track_running_stats=True)
    (2): ReLU()
    (3): MaxPool2d(kernel_size=3, stride=2, padding=0, dilation=1, ceil_mode=False)
  )
  (1): Sequential(
    (0): Conv2d(12, 48, kernel_size=(3, 3), stride=(1, 1), padding=(1, 1))
    (1): BatchNorm2d(48, eps=1e-05, momentum=0.1, affine=True, track_running_stats=True)
    (2): ReLU()
  )
  (2): Sequential(
    (0): Conv2d(48, 48, kernel_size=(3, 3), stride=(1, 1), padding=(1, 1))
    (1): BatchNorm2d(48, eps=1e-05, momentum=0.1, affine=True, track_running_stats=True)
    (2): ReLU()
  )
  (3): Sequential(
    (0): Conv2d(48, 32, kernel_size=(3, 3), stride=(1, 1), padding=(1, 1))
    (1): BatchNorm2d(32, eps=1e-05, momentum=0.1, affine=True, track_running_stats=True)
    (2): ReLU()
    (3): MaxPool2d(kernel_size=3, stride=2, padding=0, dilation=1, ceil_mode=False)
  )
  (4): Sequential(
    (0): AdaptiveAvgPool2d(output_size=(6, 6))
    (1): Flatten(start_dim=1, end_dim=-1)
    (2): Dropout(p=0.5, inplace=False)
  )
  (5): Sequential(
    (0): Linear(in_features=1152, out_features=512, bias=True)
    (1): ReLU()
    (2): Dropout(p=0.5, inplace=False)
  )
  (6): Sequential(
    (0): Linear(in_features=512, out_features=10, bias=True)
  )
)
------------------------------------------------------------------------------
Sequential(
  (0): Sequential(
    (0): Conv2d(3, 12, kernel_size=(11, 11), stride=(4, 4))
    (1): BatchNorm2d(12, eps=1e-05, momentum=0.1, affine=True, track_running_stats=True)
    (2): ReLU()
    (3): MaxPool2d(kernel_size=3, stride=2, padding=0, dilation=1, ceil_mode=False)
  )
  (1): Sequential(
    (0): Conv2d(12, 48, kernel_size=(3, 3), stride=(1, 1), padding=(1, 1))
    (1): BatchNorm2d(48, eps=1e-05, momentum=0.1, affine=True, track_running_stats=True)
    (2): ReLU()
  )
  (2): Sequential(
    (0): Conv2d(48, 32, kernel_size=(3, 3), stride=(1, 1), padding=(1, 1))
    (1): BatchNorm2d(32, eps=1e-05, momentum=0.1, affine=True, track_running_stats=True)
    (2): ReLU()
    (3): MaxPool2d(kernel_size=3, stride=2, padding=0, dilation=1, ceil_mode=False)
  )
  (3): Sequential(
    (0): AdaptiveAvgPool2d(output_size=(6, 6))
    (1): Flatten(start_dim=1, end_dim=-1)
    (2): Dropout(p=0.5, inplace=False)
  )
  (4): Sequential(
    (0): Linear(in_features=1152, out_features=512, bias=True)
    (1): ReLU()
    (2): Dropout(p=0.5, inplace=False)
  )
  (5): Sequential(
    (0): Linear(in_features=512, out_features=10, bias=True)
  )
)
Epoch 1/100, Train Loss: 1.748718, Train Acc: 35.53%, Val Loss: 1.395114, Val Acc: 49.49%
Epoch 2/100, Train Loss: 1.448426, Train Acc: 46.87%, Val Loss: 1.256315, Val Acc: 55.48%
Epoch 3/100, Train Loss: 1.341296, Train Acc: 51.64%, Val Loss: 1.160870, Val Acc: 58.84%
Epoch 4/100, Train Loss: 1.267015, Train Acc: 54.17%, Val Loss: 1.099086, Val Acc: 61.68%
…
Conv2d(3, 12, kernel_size=(11, 11), stride=(4, 4))
BatchNorm aggiornato con 6 feature
Conv2d(12, 48, kernel_size=(3, 3), stride=(1, 1), padding=(1, 1))
BatchNorm aggiornato con 24 feature
Conv2d(48, 32, kernel_size=(3, 3), stride=(1, 1), padding=(1, 1))
BatchNorm aggiornato con 16 feature
Reduction operations:
[{'op': 'scale_feats', 'val': 0.5},
 {'op': 'reduce_depth', 'val': 1},
 {'op': 'scale_feats', 'val': 0.5},
 {'op': 'reduce_depth', 'val': 6},
 {'op': 'scale_feats', 'val': 0.5},
 {'op': 'reduce_depth', 'val': 1},
 {'op': 'scale_feats', 'val': 0.5}]
Reduction ratio: 0.6666666666666666
Sequential(
  (0): Sequential(
    (0): Conv2d(3, 12, kernel_size=(11, 11), stride=(4, 4))
    (1): BatchNorm2d(12, eps=1e-05, momentum=0.1, affine=True, track_running_stats=True)
    (2): ReLU()
    (3): MaxPool2d(kernel_size=3, stride=2, padding=0, dilation=1, ceil_mode=False)
  )
  (1): Sequential(
    (0): Conv2d(12, 48, kernel_size=(3, 3), stride=(1, 1), padding=(1, 1))
    (1): BatchNorm2d(48, eps=1e-05, momentum=0.1, affine=True, track_running_stats=True)
    (2): ReLU()
  )
  (2): Sequential(
    (0): Conv2d(48, 32, kernel_size=(3, 3), stride=(1, 1), padding=(1, 1))
    (1): BatchNorm2d(32, eps=1e-05, momentum=0.1, affine=True, track_running_stats=True)
    (2): ReLU()
    (3): MaxPool2d(kernel_size=3, stride=2, padding=0, dilation=1, ceil_mode=False)
  )
  (3): Sequential(
    (0): AdaptiveAvgPool2d(output_size=(6, 6))
    (1): Flatten(start_dim=1, end_dim=-1)
    (2): Dropout(p=0.5, inplace=False)
  )
  (4): Sequential(
    (0): Linear(in_features=1152, out_features=512, bias=True)
    (1): ReLU()
    (2): Dropout(p=0.5, inplace=False)
  )
  (5): Sequential(
    (0): Linear(in_features=512, out_features=10, bias=True)
  )
)
------------------------------------------------------------------------------
Sequential(
  (0): Sequential(
    (0): Conv2d(3, 6, kernel_size=(11, 11), stride=(4, 4))
    (1): BatchNorm2d(6, eps=1e-05, momentum=0.1, affine=True, track_running_stats=True)
    (2): ReLU()
    (3): MaxPool2d(kernel_size=3, stride=2, padding=0, dilation=1, ceil_mode=False)
  )
  (1): Sequential(
    (0): Conv2d(6, 24, kernel_size=(3, 3), stride=(1, 1), padding=(1, 1))
    (1): BatchNorm2d(24, eps=1e-05, momentum=0.1, affine=True, track_running_stats=True)
    (2): ReLU()
  )
  (2): Sequential(
    (0): Conv2d(24, 16, kernel_size=(3, 3), stride=(1, 1), padding=(1, 1))
    (1): BatchNorm2d(16, eps=1e-05, momentum=0.1, affine=True, track_running_stats=True)
    (2): ReLU()
    (3): MaxPool2d(kernel_size=3, stride=2, padding=0, dilation=1, ceil_mode=False)
  )
  (3): Sequential(
    (0): AdaptiveAvgPool2d(output_size=(6, 6))
    (1): Flatten(start_dim=1, end_dim=-1)
    (2): Dropout(p=0.5, inplace=False)
  )
  (4): Sequential(
    (0): Linear(in_features=576, out_features=256, bias=True)
    (1): ReLU()
    (2): Dropout(p=0.5, inplace=False)
  )
  (5): Sequential(
    (0): Linear(in_features=256, out_features=10, bias=True)
  )
)
Epoch 1/100, Train Loss: 1.963852, Train Acc: 27.18%, Val Loss: 1.639877, Val Acc: 41.35%
Epoch 2/100, Train Loss: 1.677674, Train Acc: 38.16%, Val Loss: 1.481247, Val Acc: 46.73%
Epoch 3/100, Train Loss: 1.581750, Train Acc: 41.73%, Val Loss: 1.417654, Val Acc: 49.38%
Epoch 4/100, Train Loss: 1.517738, Train Acc: 44.65%, Val Loss: 1.347387, Val Acc: 52.41%
…
DEVO RIMUOVERE:  {'index': '4', 'type': 'Sequential', 'layers': [{'index': '4.0', 'type': 'Linear', 'args': {'in_features': 576, 'out_features': 256}}, {'index': '4.1', 'type': 'ReLU', 'args': {'inplace': False}}, {'index': '4.2', 'type': 'Dropout', 'args': {'p': 0.5, 'inplace': False}}]}
Reduction operations:
[{'op': 'scale_feats', 'val': 0.5},
 {'op': 'reduce_depth', 'val': 1},
 {'op': 'scale_feats', 'val': 0.5},
 {'op': 'reduce_depth', 'val': 6},
 {'op': 'scale_feats', 'val': 0.5},
 {'op': 'reduce_depth', 'val': 1},
 {'op': 'scale_feats', 'val': 0.5},
 {'op': 'reduce_depth', 'val': 4}]
Reduction ratio: 0.6666666666666666
Sequential(
  (0): Sequential(
    (0): Conv2d(3, 6, kernel_size=(11, 11), stride=(4, 4))
    (1): BatchNorm2d(6, eps=1e-05, momentum=0.1, affine=True, track_running_stats=True)
    (2): ReLU()
    (3): MaxPool2d(kernel_size=3, stride=2, padding=0, dilation=1, ceil_mode=False)
  )
  (1): Sequential(
    (0): Conv2d(6, 24, kernel_size=(3, 3), stride=(1, 1), padding=(1, 1))
    (1): BatchNorm2d(24, eps=1e-05, momentum=0.1, affine=True, track_running_stats=True)
    (2): ReLU()
  )
  (2): Sequential(
    (0): Conv2d(24, 16, kernel_size=(3, 3), stride=(1, 1), padding=(1, 1))
    (1): BatchNorm2d(16, eps=1e-05, momentum=0.1, affine=True, track_running_stats=True)
    (2): ReLU()
    (3): MaxPool2d(kernel_size=3, stride=2, padding=0, dilation=1, ceil_mode=False)
  )
  (3): Sequential(
    (0): AdaptiveAvgPool2d(output_size=(6, 6))
    (1): Flatten(start_dim=1, end_dim=-1)
    (2): Dropout(p=0.5, inplace=False)
  )
  (4): Sequential(
    (0): Linear(in_features=576, out_features=256, bias=True)
    (1): ReLU()
    (2): Dropout(p=0.5, inplace=False)
  )
  (5): Sequential(
    (0): Linear(in_features=256, out_features=10, bias=True)
  )
)
------------------------------------------------------------------------------
Sequential(
  (0): Sequential(
    (0): Conv2d(3, 6, kernel_size=(11, 11), stride=(4, 4))
    (1): BatchNorm2d(6, eps=1e-05, momentum=0.1, affine=True, track_running_stats=True)
    (2): ReLU()
    (3): MaxPool2d(kernel_size=3, stride=2, padding=0, dilation=1, ceil_mode=False)
  )
  (1): Sequential(
    (0): Conv2d(6, 24, kernel_size=(3, 3), stride=(1, 1), padding=(1, 1))
    (1): BatchNorm2d(24, eps=1e-05, momentum=0.1, affine=True, track_running_stats=True)
    (2): ReLU()
  )
  (2): Sequential(
    (0): Conv2d(24, 16, kernel_size=(3, 3), stride=(1, 1), padding=(1, 1))
    (1): BatchNorm2d(16, eps=1e-05, momentum=0.1, affine=True, track_running_stats=True)
    (2): ReLU()
    (3): MaxPool2d(kernel_size=3, stride=2, padding=0, dilation=1, ceil_mode=False)
  )
  (3): Sequential(
    (0): AdaptiveAvgPool2d(output_size=(6, 6))
    (1): Flatten(start_dim=1, end_dim=-1)
    (2): Dropout(p=0.5, inplace=False)
  )
  (4): Sequential(
    (0): Linear(in_features=576, out_features=10, bias=True)
  )
)
Epoch 1/100, Train Loss: 2.056808, Train Acc: 23.78%, Val Loss: 1.734373, Val Acc: 39.03%
Epoch 2/100, Train Loss: 1.736473, Train Acc: 35.82%, Val Loss: 1.523944, Val Acc: 46.56%
Epoch 3/100, Train Loss: 1.582687, Train Acc: 41.94%, Val Loss: 1.425839, Val Acc: 50.13%
Epoch 4/100, Train Loss: 1.502956, Train Acc: 45.13%, Val Loss: 1.355848, Val Acc: 52.00%
…
Epoch 5/100, Train Loss: 0.930431, Train Acc: 67.63%, Val Loss: 0.826587, Val Acc: 71.97%
Early stopping triggered.
Training is regular! Checking model requirements ...
Metrics computed = [{'name': 'accuracy', 'value': 0.7185}]
Valore m[value]:  0.7185
	Metric 'accuracy' not satisfied!
	Required 'accuracy' = 0.75 | Computed 'accuracy' = 0.7185
	Requirements not satisfied! Continue training ... 
Loading latest functioning Network...
Original model size:  222.50542163848877 MB
Reduced model size:  0.6086320877075195 MB
Parameters Reduction Ratio:  99.73021890793918
Sequential(
  (0): Sequential(
    (0): Conv2d(3, 6, kernel_size=(11, 11), stride=(4, 4))
    (1): BatchNorm2d(6, eps=1e-05, momentum=0.1, affine=True, track_running_stats=True)
    (2): ReLU()
    (3): MaxPool2d(kernel_size=3, stride=2, padding=0, dilation=1, ceil_mode=False)
  )
  (1): Sequential(
    (0): Conv2d(6, 24, kernel_size=(3, 3), stride=(1, 1), padding=(1, 1))
    (1): BatchNorm2d(24, eps=1e-05, momentum=0.1, affine=True, track_running_stats=True)
    (2): ReLU()
  )
  (2): Sequential(
    (0): Conv2d(24, 16, kernel_size=(3, 3), stride=(1, 1), padding=(1, 1))
    (1): BatchNorm2d(16, eps=1e-05, momentum=0.1, affine=True, track_running_stats=True)
    (2): ReLU()
    (3): MaxPool2d(kernel_size=3, stride=2, padding=0, dilation=1, ceil_mode=False)
  )
  (3): Sequential(
    (0): AdaptiveAvgPool2d(output_size=(6, 6))
    (1): Flatten(start_dim=1, end_dim=-1)
    (2): Dropout(p=0.5, inplace=False)
  )
  (4): Sequential(
    (0): Linear(in_features=576, out_features=256, bias=True)
    (1): ReLU()
    (2): Dropout(p=0.5, inplace=False)
  )
  (5): Sequential(
    (0): Linear(in_features=256, out_features=10, bias=True)
  )
)
Network Reduced in 16440.316038834862 s
